checkpoints/lstm.pth (torch, 3647 bytes, 6 tensors)

lstm.weight_ih_l0 f4 [32, 4]
0.77781713 0.12569924 -0.5962033 -0.17316288 -0.5353223 -0.66778624 -0.044434875 -0.6492078
0.26651022 -0.31445304 0.1272843 -0.17211615 -0.2905563 0.52444035 -0.5870549 0.4371642
0.21486117 -0.045994405 0.04319911 -0.20776388 0.28131074 -0.032861583 -0.19873117 0.086672105
-0.13605645 0.09771508 -0.23375542 -1.5093429 0.4559156 -0.4387529 -0.3467886 -0.4126747
-0.04422749 0.04886225 0.115347154 -0.47913438 -0.6645144 0.35275865 -0.16561463 -0.74187356
-0.30620736 -0.4152949 0.6277505 0.2074479 -0.2855742 0.4135372 0.031507798 0.15066577
0.22920644 0.107769065 -0.046231233 0.70162874 -0.113747865 0.3068996 0.12095097 -0.41371685
0.11877305 -0.0033680007 -0.13435672 -0.8331723 0.5726537 -0.16533493 0.3224725 -0.2838834
-0.3058234 -0.026315946 0.6549007 1.1705031 -0.3150132 0.54789114 0.01954901 1.3990122
0.32290363 0.45669186 0.35120678 0.38858563 0.043566335 0.37954688 -0.272194 -0.07763394
-0.25008276 -0.21798588 -0.44005364 0.63513875 -0.32275552 -0.17451988 0.6262066 -0.035661526
0.04692818 -0.3443847 0.20832345 -1.3006588 -0.1838216 0.020970855 0.11111498 0.048346292
-0.032616887 0.11348773 -0.38261402 -1.0786943 -0.24345165 -0.38699293 -0.14827059 -0.9470406
-0.14309767 -0.047644842 0.1842153 0.0058209393 -0.24939494 0.6725086 0.19796872 0.7168224
0.53122723 -0.23946555 -0.12007558 -0.6134754 -0.006333185 -0.20751424 -0.12682791 0.20207433
0.29399687 0.08295347 -0.08433694 -0.20874542 0.08018217 0.20534545 -0.11376551 -0.30313107
00000000: 061f 473f 4db7 003e c8a0 18bf 9c51 31be
00000010: e20a 09bf 0af4 2abf 5801 36bd 7b32 26bf
00000020: 0774 883e fdff a0be d156 023e 373f 30be
00000030: ccc3 94be b941 063f 3b49 16bf fcd3 df3e
00000040: 9104 5c3e a164 3cbd 8df1 303d 0ec0 54be
00000050: f607 903e de99 06bd 2f80 4bbe 2581 b13d
00000060: 6252 0bbe d81e c83d 955d 6fbe 2632 c1bf
00000070: c56d e93e 38a4 e0be 468e b1be 194a d3be
00000080: e227 35bd c823 483d 213b ec3d 1a51 f5be
00000090: 9e1d 2abf c89c b43e e296 29be 6deb 3dbf
000000a0: 36c7 9cbe 88a1 d4be 42b4 203f 396d 543e
000000b0: c836 92be 26bb d33e 520e 013d 2148 1a3e
000000c0: 18b5 6a3e 07b6 dc3d f65c 3dbd f19d 333f
000000d0: a4f4 e8bd f221 9d3e 24b5 f73d b2d2 d3be
000000e0: 493f f33d adb9 5cbb cf94 09be c84a 55bf
000000f0: 6f99 123f 8f4d 29be 1e1b a53e 2a59 91be
00000100: e294 9cbe 8a94 d7bc 93a7 273f 0cd3 953f
00000110: 6949 a1be 9842 0c3f 3f25 a03c d512 b33f
00000120: a053 a53e 84d3 e93e 60d1 b33e b2f4 c63e
00000130: 9d72 323d f853 c23e 035d 8bbe 8bfe 9ebd
00000140: d90a 80be b137 5fbe b64e e1be 7498 223f
00000150: 3640 a5be 57b5 32be 134f 203f d211 12bd
00000160: c337 403d 3153 b0be be52 553e fd7b a6bf
00000170: bb3b 3cbe 12cb ab3c 4090 e33d c306 463d
00000180: 4999 05bd 416c e83d fce5 c3be a812 8abf
00000190: 644b 79be f023 c6be 3fd4 17be 4171 72bf
000001a0: 3288 12be 3d27 43bd f0a2 3c3e 94bd be3b
000001b0: 6361 7fbe 8629 2c3f 50b8 4a3e ac81 373f
000001c0: 82fe 073f 7536 75be 30ea f5bd b90c 1dbf
000001d0: 9b86 cfbb 9d7e 54be 2ddf 01be 93ec 4e3e
000001e0: c286 963e 82e3 a93d d8b8 acbd 5cc1 55be
000001f0: 8d36 a43d 1446 523e e4fd e8bd ff33 9bbe

lstm.weight_hh_l0 f4 [32, 8]
-0.106031366 -1.2668883 0.36148572 -0.7910748 0.7736264 -0.61078197 1.0292666 -0.8867437
-0.129139 0.5470551 0.15991603 0.04122701 0.017238477 0.16262572 0.08689632 -0.2840124
0.1379017 0.15718728 -0.10102267 -0.09809713 0.48361206 -0.23952743 0.11100642 0.09810294
-0.045668475 0.06992025 0.47059172 0.1597911 0.11336067 -0.028763657 -0.24136983 -0.41750345
1.1139334 -0.20655756 0.14929716 -0.06699339 0.5618228 0.8459323 0.535893 -0.60326046
-0.24886742 -0.27932248 0.13272882 -0.22916307 0.47783947 0.18978783 0.93334544 -0.157173
-0.010470487 -0.21445444 -0.092090085 -0.15575838 0.069088005 0.12624814 0.4728352 -0.31449467
-0.4350542 -1.2778932 0.28131726 -0.43572414 0.30581325 -0.087313384 0.788583 -0.522698
-0.30798352 -0.546646 0.12544794 0.09339409 0.25694805 -0.124452464 0.73437774 -0.07546073
0.16033486 0.0805559 0.2448787 0.33394685 -0.28671494 -0.032611843 0.13103743 0.052240472
-0.1956848 -0.1633733 -0.026568986 -0.04124756 -0.17608108 0.2677544 0.3553646 -0.32347125
-0.4367956 0.06012532 -0.031755846 -0.1660759 0.097696155 -0.3280136 0.02384627 -0.4284748
-0.12505321 -0.099945374 0.2693197 -0.2611564 0.3931002 0.017194802 0.37298968 -0.5153509
-0.046321493 -0.058479838 0.29554698 0.2648846 0.113671914 -0.33437252 0.5565919 -0.28625086
-0.45493641 -0.3984332 -0.10825829 -0.09002235 -0.023190465 -0.12424996 0.35228238 0.06879022
0.14165592 -0.43715543 0.419933 -0.1566217 0.7558777 -0.33881533 0.8466119 -0.054270733
0.07493054 0.039399028 0.25396645 -0.51086694 0.1730389 -0.29811305 -0.27335787 -0.34408417
0.14346386 0.30660963 0.08183671 -0.09738668 -0.18897054 0.3817842 -0.08876314 0.23675252
0.43192002 0.30913004 0.017879318 -0.27893186 0.08715359 -0.43334 -0.09103019 -0.10719029
-0.13615614 0.41904575 -0.24628215 -0.10921819 0.06978228 -0.21813819 0.095407605 0.10265411
-0.5187161 -0.11856737 0.14784104 0.48153508 0.3412803 -0.5372728 -0.08785295 0.03938881
0.35829908 0.12678738 0.23846897 -0.49332276 -0.070728295 0.14304608 -0.2509007 -0.34895495
-0.15787643 -0.23609245 -0.35697335 0.15992223 -0.3476439 -0.062466107 -0.105145104 -0.2527066
-1.1651825 0.16684711 -0.12914602 0.14048547 -0.642238 -0.31576592 -0.45105997 0.33070004
-0.7320314 -0.12068878 -0.08134801 0.41999015 -0.015402423 -0.55505556 0.37176767 -0.3463935
-0.24245799 0.32612 0.28969353 -0.17297177 -0.068380564 0.32902816 -0.20031673 0.20041412
-0.53615403 0.030835269 0.40330455 -0.11341388 0.17407942 -0.8870951 0.3297406 0.2769225
-0.21282859 0.023224598 0.1054155 0.2442014 -0.004787489 -0.13823864 0.24160105 -0.0027371866
-0.28874758 -0.6285375 0.52463067 -0.23128273 0.47866723 -0.43646058 0.719783 -0.33870858
-0.8027213 0.07159361 -0.032472357 -0.34117487 0.063871846 -0.36511293 -0.10032676 -0.016503636
-0.3711446 -0.38511735 0.17232205 0.0918989 0.11758375 0.29714423 0.42956918 -0.58534336
0.18715748 -0.029034825 0.132363 -0.116330884 0.6411787 -0.05566591 0.3157887 -0.20980723
00000000: f926 d9bd 6529 a2bf a814 b93e e183 4abf
00000010: 610c 463f 355c 1cbf 02bf 833f a301 63bf
00000020: 043d 04be ce0b 0c3f 07c1 233e a7dd 283d
00000030: b537 8d3c 5b87 263e b3f6 b13d 136a 91be
00000040: 1a36 0d3e b4f5 203e f9e4 cebd 26e7 c8bd
00000050: 009c f73e ae46 75be 5557 e33d 32ea c83d
00000060: de0e 3bbd 5932 8f3d 66f1 f03e 47a0 233e
00000070: a429 e83d c3a1 ebbc a729 77be 03c3 d5be
00000080: 5f95 8e3f d383 53be 5be1 183e d533 89bd
00000090: 9ed3 0f3f 058f 583f 4930 093f 476f 1abf
000000a0: 1ad7 7ebe 5b03 8fbe 10ea 073e b9a9 6abe
000000b0: 60a7 f43e be57 423e baef 6e3f f5f1 20be
000000c0: 688c 2bbc f299 5bbe ba99 bcbd 207f 1fbe
000000d0: 037e 8d3d 3147 013e 7517 f23e 7205 a1be
000000e0: 6dbf debe 0192 a3bf d108 903e 3c17 dfbe
000000f0: 8e93 9c3e 5cd1 b2bd 93e0 493f 89cf 05bf
00000100: 04b0 9dbe fef0 0bbf 6d75 003e 6745 bf3d
00000110: b28e 833e efe0 febd 2e00 3c3f 288b 9abd
00000120: d22e 243e 7efa a43d 7bc1 7a3e 15fb aa3e
00000130: 4dcc 92be ff93 05bd ad2e 063e 1bfa 553d
00000140: 9961 48be 554b 27be 34a7 d9bc 34f3 28bd
00000150: 994e 34be 1b17 893e 59f2 b53e 069e a5be
00000160: aca3 dfbe f845 763d 6b12 02bd cd0f 2abe
00000170: ec14 c83d 66f1 a7be 4159 c33c 0d61 dbbe
00000180: f30d 00be 29b0 ccbd 46e4 893e 4bb6 85be
00000190: 6e44 c93e 1ddc 8c3c 81f8 be3e 09ee 03bf
000001a0: 9bbb 3dbd 8e88 6fbd ef51 973e f49e 873e
000001b0: d2cc e83d e032 abbe cf7c 0e3f 798f 92be
000001c0: 6ded e8be 70ff cbbe 86b6 ddbd a35d b8bd
000001d0: eef9 bdbc c376 febd 5b5e b43e e3e1 8c3d
000001e0: 400e 113e d6d2 dfbe 7501 d73e 7061 20be
000001f0: 3381 413f 3479 adbe 8fbb 583f fd4a 5ebd
00000200: 2f75 993d e060 213d e407 823e 2dc8 02bf
00000210: 1c31 313e 46a2 98be 90f5 8bbe cd2b b0be
00000220: 31e8 123e f0fb 9c3e 019a a73d ab72 c7bd
00000230: 7e81 41be 3879 c33e 73c9 b5bd 416f 723e
00000240: 9f24 dd3e 4b46 9e3e a677 923c 28d0 8ebe
00000250: 957d b23d bede ddbe 096e babd 9586 dbbd
00000260: 846c 0bbe 2a8d d63e 6331 7cbe c9ad dfbd
00000270: 03ea 8e3d 9e5f 5fbe 1065 c33d 513c d23d
00000280: 94ca 04bf 73d3 f2bd a463 173e c48b f63e
00000290: 4bbc ae3e b68a 09bf 3fec b3bd 2956 213d
000002a0: fa72 b73e 8dd4 013e 3631 743e cd94 fcbe
000002b0: ffd9 90bd ac7a 123e 0e76 80be 39aa b2be
000002c0: 5caa 21be 38c2 71be 36c5 b6be a7c2 233e
000002d0: 62fe b1be 76dc 7fbd 5156 d7bd c262 81be
000002e0: b324 95bf f8d9 2a3e db3e 04be 6cdb 0f3e
000002f0: b669 24bf 12ac a1be 55f1 e6be 8451 a93e
00000300: 6966 3bbf ae2b f7bd c999 a6bd f308 d73e
00000310: 725a 7cbc 1f18 0ebf 5558 be3e 7d5a b1be
00000320: e846 78be 33f9 a63e b652 943e 831f 31be
00000330: 1c0b 8cbd 6176 a83e d41f 4dbe 5c39 4d3e
00000340: 6441 09bf 3f9a fc3c ef7d ce3e 8945 e8bd
00000350: e041 323e aa18 63bf c3d3 a83e c9c8 8d3e
00000360: bdef 59be 8341 be3c 15e4 d73d ef0f 7a3e
00000370: 5ee0 9cbb 6e8e 0dbe 4466 773e 5f62 33bb
00000380: b9d6 93be d5e7 20bf 324e 063f 61d5 6cbe
00000390: df13 f53e c377 dfbe b343 383f 366b adbe
000003a0: 257f 4dbf ac9f 923d bc01 05bd 79ae aebe
000003b0: 3ecf 823d 15f0 babe 1e78 cdbd a232 87bc
000003c0: aa06 bebe 1a2e c5be 3175 303e 7e35 bc3d
000003d0: c0cf f03d 4a23 983e 7ef0 db3e 10d9 15bf
000003e0: 36a6 3f3e 71da edbc 2b8a 073e e33e eebd
000003f0: 4a24 243f f001 64bd 0eaf a13e b5d7 56be

lstm.bias_ih_l0 f4 [32]
0.0783873 -0.13102226 0.054525975 0.22989243 0.31685954 0.4888698 0.37612015 0.54785067
0.06171457 0.3909839 0.21065515 0.17554054 -0.10710082 0.4222427 -0.06513849 0.5541529
-0.021238547 -0.16719033 0.20710914 -0.13144086 0.58016235 0.19474483 -0.020146001 -0.32703528
-0.20606089 0.5972732 0.5626669 -0.011512115 0.25625175 0.3469817 0.14717422 0.062712125
00000000: 8589 a03d b32a 06be a156 5f3d ec68 6b3e
00000010: 6a3b a23e 244d fa3e d292 c03e f13f 0c3f
00000020: 6bc8 7c3d 0b2f c83e fcb5 573e e6c0 333e
00000030: ad57 dbbd 3230 d83e 5467 85bd f7dc 0d3f
00000040: 76fc adbc f133 2bbe 6b14 543e 6f98 06be
00000050: 8585 143f 306b 473e 3a09 a5bc 2b71 a7be
00000060: a001 53be e5e6 183f f00a 103f 4f9d 3cbc
00000070: 6e33 833e 96a7 b13e d7b4 163e 376f 803d

lstm.bias_hh_l0 f4 [32]
0.10334637 0.3569225 0.41297853 -0.0009281646 0.08991029 0.4600911 0.2593064 0.30472773
0.15515925 -0.026824325 -0.11621908 0.24317089 0.14153646 0.24251081 0.44436482 -0.007151272
0.18611246 -0.34009403 0.3902007 0.1589406 0.35533223 -0.263475 0.1456868 -0.31805715
0.33768234 0.1339037 0.42088553 0.15528548 0.2871218 0.15808132 0.4717491 0.11941372
00000000: 43a7 d33d 8cbe b63e ec71 d33e 1250 73ba
00000010: e322 b83d 1091 eb3e cfc3 843e 4605 9c3e
00000020: 11e2 1e3e b0be dbbc 4504 eebd ca01 793e
00000030: efee 103e c154 783e c983 e33e 3855 eabb
00000040: 4494 3e3e ce20 aebe 63c8 c73e 53c1 223e
00000050: 1bee b53e 32e6 86be ec2e 153e 63d8 a2be
00000060: b3e4 ac3e 0d1e 093e 4f7e d73e 2803 1f3e
00000070: a101 933e 12e0 213e 1989 f13e 2e8f f43d

fc.weight f4 [2, 8]
0.08597969 -0.36790824 -0.4110246 -0.23735452 -0.44209805 -0.7300717 -0.22952157 0.5067023
-1.2966115 0.8345577 -0.7909039 0.010031909 -1.2865759 -1.4092231 0.5934794 1.1035005
00000000: 1f16 b03d 785e bcbe d171 d2be 100d 73be
00000010: ad5a e2be fbe5 3abf b407 6bbe 3eb7 013f
00000020: 5ef7 a5bf 93a5 553f ae78 4abf e05c 243c
00000030: 85ae a4bf 6c61 b4bf 44ee 173f 813f 8d3f

fc.bias f4 [2]
-0.19916536 0.180989
00000000: 01f2 4bbe 2e55 393e
