checkpoints/mylstm.pth (torch, 3348 bytes, 5 tensors)

lstm.W f4 [4, 32]
000000 d7 ce 92 bd 83 71 14 bc 36 fb 0c bd 09 9b 93 bc
       -0.07168358 -0.009060266 -0.03441926 -0.018018262
000010 6e 8c 85 3d fd 35 44 bd 7e dd ba bd 90 87 16 3e
       0.065209255 -0.04790305 -0.091242775 0.1470015
000020 72 03 30 3d e4 24 47 bd 1b fc 5c bc 36 a0 1b bd
       0.042972036 -0.048619166 -0.013487841 -0.037994586
000030 af 9d 7c bd df d4 0f bd e5 db 41 bd 60 3d 08 be
       -0.061673816 -0.03511512 -0.04732885 -0.13304663
000040 ac 84 09 3d 9d 4b 68 be a8 01 4a bd 22 5a 7a bc
       0.03357379 -0.22685094 -0.049317986 -0.015280278
000050 95 ce d4 3c 71 62 34 3c c6 34 04 bd 86 40 91 3e
       0.025977412 0.011009798 -0.03227689 0.2836954
000060 80 3f 0b bd 80 cc 80 be 56 f9 4f bb 44 7c 12 bc
       -0.033996105 -0.2515602 -0.003173431 -0.00894076
000070 3a 37 49 bd 11 bb d7 bc 58 02 4b bd 20 28 27 bd
       -0.049124934 -0.026334317 -0.049562782 -0.04080975
000080 47 04 a8 bd f6 c9 6f bc e0 c7 d9 3c 9c e0 be bc
       -0.08203941 -0.014635554 0.026584566 -0.023300461
000090 e4 bc 12 be f4 2c 15 3c 46 0d 15 3d 9f 72 2b bb
       -0.14329869 0.009104956 0.03638961 -0.0026160849
0000a0 b5 5a c5 bc 25 e8 63 bd 83 f3 b0 bc 03 6f 36 bd
       -0.024091104 -0.055641312 -0.02160049 -0.044539463
0000b0 c8 6f 33 bd b2 c2 e2 3b 22 f2 5a 3c bd 84 b3 bc
       -0.043807775 0.006920182 0.013363393 -0.02191388
0000c0 f2 0c 3f 3d eb 3a 08 3e d4 10 cc bc 8a b4 7b bd
       0.046643205 0.13303725 -0.024910368 -0.061451472
0000d0 6f fb fb 3d 86 8f 56 bb 99 14 ee 3c 81 77 cb 3d
       0.123038165 -0.0032739355 0.029062556 0.09934903
0000e0 84 d3 3a bd b1 18 33 3e ed b0 37 3c b9 90 1e bc
       -0.045611873 0.17489888 0.011211616 -0.009678059
0000f0 7f 93 49 3e ee 3d a1 bc e9 29 01 3d 57 51 86 bc
       0.19685172 -0.01968285 0.03153411 -0.016396208
000100 2c 80 e4 bd 4d fc 3a 3d d7 9b 26 bd cf 50 27 3d
       -0.11157259 0.04565077 -0.040675964 0.04084855
000110 eb 10 bd bd 2e c2 17 bc 2b 02 44 bd cd d5 0c bd
       -0.092317425 -0.009262605 -0.04785363 -0.034383584
000120 91 a9 55 3d 46 f5 98 3d 7c c9 31 bc a7 b5 c4 bc
       0.052163664 0.07468657 -0.01085126 -0.0240124
000130 01 7a f6 3d 2a 81 15 bc 82 32 0e bd 97 9b 9a 3d
       0.12034989 -0.009125033 -0.034716137 0.07549208
000140 84 5d 02 3e e0 03 be bd 1f bc 1a bd 01 57 12 bc
       0.12730986 -0.09278083 -0.037777063 -0.008931876
000150 79 9f 7e bd 48 a2 ac 3a bd 25 49 bc cd 8f 0c bf
       -0.062163804 0.0013170922 -0.012277064 -0.5490692
000160 a2 7c 2b bd 1c d8 3f bd 51 13 47 bc f1 55 44 3c
       -0.041866906 -0.046836957 -0.0121506015 0.011983381
000170 3c 1a ee 3d 9f 7b ed bb 2f c4 73 bd 36 06 00 bd
       0.116260976 -0.007247403 -0.059513267 -0.031255923
000180 6f fc 85 bc 3d 49 5a 3c 07 8c 90 bb da 97 26 3b
       -0.016355721 0.013323125 -0.004411224 0.00254201
000190 f2 18 53 3e 8a 8c 85 bc 09 78 62 3c ac 84 3b 3a
       0.20614985 -0.016302366 0.013822564 0.00071532535
0001a0 c9 36 b7 3d d3 b0 a5 bc c7 2f 11 3b 5f 7c 01 bd
       0.08945996 -0.020225918 0.0022153722 -0.03161275
0001b0 ff f5 4d 3e bd 16 f1 bc 71 fe d0 bc 20 92 ce bd
       0.20113371 -0.029429788 -0.025511952 -0.10086465
0001c0 d3 7e f8 3d 46 be 05 3d 64 a9 87 bd 60 78 27 bd
       0.12133565 0.032652162 -0.066241056 -0.040886283
0001d0 f7 7b f1 3c 36 ab 85 3c b5 ed 2c bc 0a b6 64 bf
       0.029478056 0.016316991 -0.010554721 -0.8934027
0001e0 10 32 f9 3c 76 27 62 3d a0 d8 4e 3c 52 3b 20 3c
       0.03041938 0.055213414 0.01262489 0.009779768
0001f0 3d 9d 16 3d 1e 48 ec bc c5 ce a6 bc 11 30 c1 bc
       0.036771048 -0.028842982 -0.020362267 -0.02358249

lstm.U f4 [8, 32]
000000 ff 63 ca be 47 8a b0 3d 5a 4d 44 be 98 dc 6d bd
       -0.39529416 0.08620124 -0.19170132 -0.058071703
000010 4c 0c 1d bd e5 0f 90 bd 65 a6 a4 be 4f 87 d0 bd
       -0.038341805 -0.07034282 -0.321582 -0.10182058
000020 fd e8 97 be d5 17 97 3d 1d 8a 5f be f2 9c a3 bd
       -0.29669943 0.073775925 -0.2183003 -0.07988919
000030 3e de cc bd 5f 9d cf bd 9a 92 80 be 7f fb 05 bf
       -0.10003327 -0.10137438 -0.25111848 -0.5233688
000040 fb 4a 2a 3e 55 e0 a9 3d 67 b4 a8 bd 51 b2 c2 bd
       0.16630165 0.08294741 -0.08237534 -0.095066674
000050 74 80 c5 bd 98 82 16 be 9d a1 54 3e df c9 fe be
       -0.09643641 -0.14698255 0.20764776 -0.4976339
000060 31 3d d0 be 86 73 07 bd 7c 9e 01 be d2 f6 e0 3b
       -0.40671685 -0.033069156 -0.12658113 0.006865361
000070 eb 22 49 bd 9b dc 84 bd 15 8a ac be bc 6f 8c be
       -0.049105566 -0.0648739 -0.33699098 -0.27428997
000080 ad 77 30 3e 7e 80 d5 3e 0a 4a 61 3e e2 c4 42 bd
       0.17233153 0.41699594 0.220009 -0.047551043
000090 a4 a2 4e be 05 7f 67 be 4b 2f 88 3c 30 9f 8d bf
       -0.2017923 -0.22607048 0.016624114 -1.1064205
0000a0 8a d3 8d 3e cb f8 fa 3e 5f 04 55 3e 31 19 73 bd
       0.27700454 0.4901794 0.20802449 -0.059350196
0000b0 48 64 de bd 59 f7 5d be 2a 57 e4 3d 87 31 0e bf
       -0.10858971 -0.21676387 0.11149438 -0.5554432
0000c0 30 d3 7b be 57 b0 79 3e 8e b1 50 3e 4a 0f ab bd
       -0.2459228 0.24383675 0.20380232 -0.083525255
0000d0 f3 42 a1 3e b2 74 3e 3c b5 9e 50 3e 01 ac 01 3f
       0.3149639 0.011624502 0.20373042 0.5065308
0000e0 3c 1f 42 3e 5a e8 b0 3d 9c 0a 63 bf 97 90 3e 3f
       0.18957227 0.086380675 -0.88688064 0.74439377
0000f0 3d eb 0c be d6 d7 60 be af db 8e 3c d9 26 68 3d
       -0.13761611 -0.21957335 0.017438738 0.056677673
000100 fc 3f d3 3e b7 6b 70 bf e2 0b a0 3e 56 f3 52 3d
       0.41259754 -0.9391436 0.31259066 0.051501594
000110 a2 43 ff bc 80 86 5d 3e d4 6f 22 3f 9a 5e 93 bd
       -0.03116018 0.21633339 0.63451886 -0.07195778
000120 e2 b8 d5 3e 47 df 54 bf 5e 11 4f 3e 67 b6 a1 3d
       0.41742617 -0.83153194 0.20221469 0.078961186
000130 f8 fb 81 3c 5a 17 49 3e d1 66 94 3e 8e 38 04 3f
       0.015867218 0.19637814 0.28984693 0.51648796
000140 44 51 a0 be 95 a0 ba 3d 28 3b 06 3e ce ab cc bb
       -0.31312 0.0911266 0.13108504 -0.0062460667
000150 54 78 32 3e 8c ac 4c 3e 3b 71 63 be 2a df f8 3e
       0.17428714 0.19987696 -0.22211163 0.4860776
000160 e8 66 da 3e 28 81 48 be 05 c1 ab 3f e0 2a 85 bf
       0.42656636 -0.19580519 1.341828 -1.040371
000170 5b f5 87 3e 06 dc 9a 3d 5f 71 16 3f 0a 76 d8 3e
       0.2655438 0.075614974 0.5876674 0.42277557
000180 f8 52 8a be 9d 2b 9d 3e a5 27 92 be 79 ac c3 3d
       -0.27016425 0.30697337 -0.2854587 0.09554381
000190 cd f1 06 3e 04 b5 bb 3e ed bd ec 3d 01 7c f0 3e
       0.13178177 0.3666154 0.11559663 0.46969607
0001a0 73 21 82 be d6 39 8d 3e a5 84 59 be d7 c8 11 bb
       -0.25416145 0.27583188 -0.21242006 -0.0022244954
0001b0 51 3c 25 3d 06 e9 4e 3e f2 38 ed 3d 12 9d aa 3e
       0.040340725 0.20206079 0.11583127 0.3332296
0001c0 fd 43 76 3d c8 f8 0c be 68 e2 05 be 06 27 97 3d
       0.060123432 -0.13766778 -0.13074648 0.0738049
0001d0 5b 97 86 be ee 06 31 be 37 74 28 3e ca 28 75 3d
       -0.2628735 -0.172878 0.16450582 0.059853353
0001e0 23 d1 89 be d9 9f 85 ba c2 2f 2e bf 52 f9 75 3f
       -0.2691737 -0.0010194733 -0.6804162 0.9608356
0001f0 71 dc 60 be cd 27 c8 3e 8c 77 d4 3d 34 d7 43 be
       -0.21959092 0.39092866 0.10374364 -0.19125062
000200 f5 69 85 3e 44 1c d5 bd 9b 6a 9c 3e 60 f1 2d bc
       0.260574 -0.10405782 0.30550084 -0.01061663
000210 2a f9 60 be 6a c4 6e be 1b 23 1b bd 83 ee 47 bf
       -0.21970049 -0.23317114 -0.037875276 -0.78098315
000220 fc dd d7 3e 93 95 87 bd 9d 78 a0 3e 08 bd 66 bc
       0.42161548 -0.06620326 0.3134202 -0.0140831545
000230 77 99 00 be ab f8 03 be 86 69 5c 3c f6 53 d8 be
       -0.12558542 -0.12887828 0.013452893 -0.42251557
000240 11 8d 38 be ee b6 3e 3e fb f3 44 3e 99 64 b2 bd
       -0.18022563 0.1862447 0.19233696 -0.08710594
000250 00 a2 aa 3e d4 c4 8f 3d 9d f6 85 3c 25 be f4 3e
       0.3332672 0.07019964 0.016352946 0.4780132
000260 b2 4e 90 3e 3b 8d 83 bd 62 dd 61 3e e2 63 42 bc
       0.2818504 -0.06423422 0.22057107 -0.011864634
000270 2f 65 58 be 79 e8 72 be 7e 2f f4 bc 92 e7 5a 3e
       -0.21132348 -0.23721494 -0.029807802 0.213774
000280 a0 a1 42 3e fa 9b 51 3b de bd 17 3e 97 8e b9 bc
       0.19006968 0.0031983838 0.14818522 -0.022651
000290 ec bf 12 3e 31 99 f9 bd 7d 4a 8d 3d a1 06 ba be
       0.14331025 -0.12187422 0.06898973 -0.36333182
0002a0 b6 fe 76 3d 25 41 f1 bc fc c0 43 3e 88 e5 84 39
       0.060301505 -0.029450009 0.19116586 0.00025348016
0002b0 dc 8b 29 3e 7b 5d 27 be fe e2 a9 3d e2 c3 95 3e
       0.16557258 -0.16344254 0.082952484 0.2925101
0002c0 b9 7d 48 3d 20 dd 4b be 6f 4d ca 3d e9 d1 83 bd
       0.048948023 -0.19908571 0.098780505 -0.064365216
0002d0 7d 91 95 3d fd 70 84 3e a2 e2 a9 be 9b 9f b6 be
       0.0730314 0.25867453 -0.3318072 -0.35668644
0002e0 80 6d cc 3d a5 2f b8 3d d0 24 10 3e 6a 89 0d bc
       0.09981823 0.089934625 0.14076543 -0.008638719
0002f0 5a d3 9e 3e 10 35 18 be f5 04 a4 3d fb 3c 6b 3e
       0.31020623 -0.14863992 0.08008758 0.22972481
000300 0f 87 67 be 69 08 a1 bd 68 80 5e bd e5 a1 13 3d
       -0.22610115 -0.07862932 -0.054321676 0.036043067
000310 cb 3d 08 be 3a bc e9 bd b2 16 12 be 24 06 5c bd
       -0.13304822 -0.114128545 -0.1426647 -0.053716794
000320 e0 8a 13 3c 82 1a 8f bc 2a ec fd bd 5b 2a 55 3c
       0.009005278 -0.017468695 -0.1239856 0.013010587
000330 b4 4e 0c be 66 ff e6 3d d5 df ea bd 14 05 00 bf
       -0.13701898 0.11279182 -0.11468474 -0.5000775
000340 b7 d5 f4 bc 56 58 0c 3e 87 47 97 bd 78 8e 80 3c
       -0.029887063 0.13705572 -0.0738669 0.015692934
000350 e9 5f 5b 3d 11 d3 34 be 6a ab 37 3e 9f e1 a4 3e
       0.053558264 -0.1765864 0.17936483 0.32203385
000360 1e dc 01 be 3c aa ac bd 7b 09 ba bd 36 06 51 3c
       -0.12681624 -0.08430907 -0.090838395 0.012757828
000370 d4 e0 82 be 3d a9 b0 bd cc f5 1d be 0a 37 f5 bd
       -0.25562155 -0.0862603 -0.15425795 -0.119733885
000380 bd e0 9f 3e 63 0b 8a bf 54 af c2 3e 42 b5 10 bd
       0.3122615 -1.0784725 0.3802439 -0.03532911
000390 09 ac c6 bc da 69 4b be 6e 49 37 3e fd 7c 41 be
       -0.024251955 -0.19864598 0.17899105 -0.18895335
0003a0 20 67 89 3e a1 40 6d bf cf d6 a9 3e e7 5c ab 3c
       0.2683649 -0.9267674 0.33171698 0.020918323
0003b0 99 f4 bd 3c 9b 80 26 be 9c 03 82 3e 35 5c f3 3e
       0.023187922 -0.16259997 0.2539338 0.47531286
0003c0 98 45 55 be ed cf 46 3d 61 e9 91 3e bb fa 38 be
       -0.20827329 0.048538137 0.28498366 -0.18064396
0003d0 c1 59 64 3e 93 1f 03 3f ca e1 fa be 61 98 c1 3e
       0.22299863 0.51220053 -0.49000388 0.37811568
0003e0 0e b2 8b 3e b1 a2 59 be 95 98 ed 3f c6 e7 ae bf
       0.27284282 -0.21253468 1.8562189 -1.3664482
0003f0 da 70 1d 3f 45 21 76 be f6 f8 2e 3e ae 5c 90 3e
       0.6150032 -0.24036129 0.17087159 0.2819571

lstm.b f4 [32]
000000 f4 84 91 3e 52 0c 7d 3e 3f 8e 10 3e d6 e9 b2 3d
       0.28421748 0.24711731 0.14116763 0.08736007
000010 47 1a c4 3e 9e 9d a3 3e ee 7e 6e 3e 60 68 57 3f
       0.38301298 0.3195619 0.23290607 0.8414364
000020 8c ae 12 3e 34 8b 64 3e 36 a2 00 3e 8d e6 d0 3c
       0.14324397 0.22318727 0.12561879 0.02550056
000030 16 52 94 3e c3 e7 6b 3e eb 77 1e 3e fd 68 2b 3f
       0.28968877 0.23037629 0.15475433 0.66957074
000040 83 2b 21 3d 8a 06 74 be 7a 96 3c bd fe a7 3a 3e
       0.039348137 -0.2383062 -0.046041943 0.18228146
000050 5c 7d ba be b1 13 5e bd 67 38 b5 bd a0 0e 5a be
       -0.36423767 -0.054217998 -0.088486485 -0.21294641
000060 54 77 8a 3e 96 76 57 3e ed 3e 2a 3e b2 18 a7 3d
       0.27044165 0.2104133 0.16625567 0.08159007
000070 38 52 42 3e b1 82 a7 3e 98 c7 74 3e 81 13 83 3e
       0.18976676 0.32716897 0.23904264 0.25600818

fc.weight f4 [2, 8]
000000 e9 84 4a 3e c9 b4 74 bf 1f 10 63 3f 95 94 fc be
       0.19777264 -0.95588356 0.88696474 -0.4933211
000010 94 0b 46 be e3 72 05 bd 36 5c d0 3c e6 72 a7 3e
       -0.19340354 -0.032580268 0.025434595 0.32704848
000020 97 04 95 3e 60 ca b3 bf b2 0a ce 3f 92 19 bb bf
       0.29105064 -1.4046135 1.6097014 -1.4617178
000030 1e ef b4 be 9a 93 eb 3e 5d fc a3 be 97 27 dd 3f
       -0.35338682 0.4601105 -0.32028475 1.7277707

fc.bias f4 [2]
000000 e7 8b 7f 3e 53 6c c0 bd
       0.24955712 -0.09395661
