checkpoints/transformer.pth (torch, 107184 bytes, 66 tensors)

transformer.encoder.layers.0.self_attn.in_proj_weight f4 [12, 4]
000000 ff 40 30 3e 1d 4a 9c be a4 79 ee 3e 91 2e 09 bc
       0.17212294 -0.30525294 0.4657718 -0.008372919
000010 5c 34 08 bf f6 ae b9 3e ff 3f a1 be ac 85 1e bf
       -0.53204894 0.36266297 -0.31494138 -0.6192272
000020 3f ee b4 3e 10 f4 90 be 9f 8b c8 be ec a1 63 be
       0.35338017 -0.28311205 -0.39169022 -0.22229737
000030 50 22 b3 be 79 a3 52 be 22 a6 84 bd b1 00 dc 3e
       -0.34987116 -0.20570172 -0.06477 0.42969278
000040 f8 96 9c be 26 d7 80 3e a5 6f 71 3e 70 0a 29 be
       -0.3058393 0.25164145 0.23577745 -0.16507888
000050 be 7b 56 3e 37 bc e7 3e 6a a9 be be b0 c8 19 be
       0.20945641 0.45260784 -0.37238628 -0.15017962
000060 df 1d 33 3f d2 cf b1 3e 4d 50 47 3e 5d ae 04 be
       0.69967455 0.34728867 0.19464226 -0.1295714
000070 28 21 c5 be ea d1 07 bf cc 3c a6 be 96 0a 71 be
       -0.3850186 -0.5305468 -0.3246826 -0.23539194
000080 d0 a4 c5 3d e2 3b f5 3d 87 95 12 3f b6 d7 f2 3e
       0.09650576 0.11974312 0.5725941 0.474302
000090 fc ee 1e be 2f e7 20 3e 2f 82 f9 3e 20 ab 9e 3e
       -0.15520853 0.1571319 0.48732135 0.30989933
0000a0 88 05 d5 be 75 74 3b 3c 87 3d ba bd b1 9d 2b 3f
       -0.41605783 0.01144134 -0.09093767 0.67037493
0000b0 57 83 bf be ba 69 fa bd dd c3 ba 3e 87 bc dd 3e
       -0.37404892 -0.12227197 0.36477557 0.43307897

transformer.encoder.layers.0.self_attn.in_proj_bias f4 [12]
000000 c9 16 4d 3d 7e f2 36 3e fb b7 17 3f 43 53 05 bf
       0.050070558 0.17865941 0.59265107 -0.5208017
000010 b1 80 49 ba ed 2c 94 3c d5 81 c1 3c 52 82 9f 3c
       -0.0007686718 0.018087829 0.023621479 0.019471321
000020 35 8a eb 3d 15 62 9b bc bb 2a bb 3c a4 c2 7f 3d
       0.1150097 -0.018967668 0.022847524 0.062441483

transformer.encoder.layers.0.self_attn.out_proj.weight f4 [4, 4]
000000 7d cd 65 3f 38 d5 f7 3e 8d d1 f3 3e 4c dd f6 be
       0.89766675 0.4840486 0.47620812 -0.4821571
000010 15 96 4a bf 48 5d 45 3f ba 76 3a 3f b4 fd e2 be
       -0.79135257 0.7709546 0.7283741 -0.44334185
000020 6f 03 d9 be af 4e ab 3e f6 b3 b0 be 77 af 48 bf
       -0.42385432 0.33458468 -0.345123 -0.7839274
000030 d1 e0 f7 be 23 46 d0 3e 4c 88 00 3f 78 d3 e8 be
       -0.4841371 0.4067851 0.5020797 -0.45473838

transformer.encoder.layers.0.self_attn.out_proj.bias f4 [4]
000000 e0 f6 cc 3d 0f df fc bc ec c7 a2 bd 9e 02 11 bd
       0.10008025 -0.030868081 -0.07948288 -0.035402887

transformer.encoder.layers.0.linear1.weight f4 [8, 4]
000000 b8 c9 d8 be fa 74 70 3e 14 bd ab 3e 31 04 5b bd
       -0.423414 0.23482123 0.33542693 -0.053470794
000010 de 9c b1 bd 28 e6 10 bf 3d d9 16 be 4f e1 ce 3e
       -0.08672498 -0.5660119 -0.14731307 0.40406272
000020 5c d3 e9 bd da 28 b4 be 4c 1e 33 3f ad 47 52 bf
       -0.11417267 -0.35187417 0.69968104 -0.8214062
000030 a6 2b 61 be 0a ac 34 bf 3d 34 2e 3f 74 9f 2f 3f
       -0.21989307 -0.7057501 0.6804846 0.6860268
000040 8b d5 33 3e 41 1e fa be c8 ec 2a 3f 40 23 ed be
       0.17561929 -0.48851207 0.6676755 -0.46315956
000050 fa 27 23 3f 98 0c 3b be 70 96 d1 3d 4f 1a c7 bd
       0.63732874 -0.18266523 0.10233772 -0.09721815
000060 4d 4c 0e be fa 1d a0 bd 39 5d d4 3e 8d 35 27 bf
       -0.13896294 -0.078182176 0.41477373 -0.65316087
000070 df f1 88 3e db ab ba 3e e3 d8 16 3e 2c 54 23 bf
       0.26747033 0.3645924 0.14731173 -0.6380031

transformer.encoder.layers.0.linear1.bias f4 [8]
000000 87 12 66 3e fd 92 ab be ea bc 0f be 06 33 41 be
       0.22468005 -0.3351058 -0.14036909 -0.1886712
000010 d3 1b aa 3d c8 74 49 bc d8 22 29 be 77 7e c1 be
       0.08306088 -0.012295909 -0.16517198 -0.37791798

transformer.encoder.layers.0.linear2.weight f4 [4, 8]
000000 94 f0 16 3f 89 47 d2 bd 45 43 b1 be 42 70 4e bf
       0.58960843 -0.102675505 -0.34621635 -0.8064004
000010 a9 dc 3f bf 06 0d 22 3f 85 dd eb be ca 37 9e 3c
       -0.74946076 0.6330112 -0.46067443 0.019313712
000020 b3 2a d7 be e7 df 11 bf 34 76 22 3f fe 6f f9 3e
       -0.42024764 -0.5698227 0.63461614 0.48718256
000030 ab c1 c4 be d4 77 cb 3e 32 32 3e 3e 44 39 d7 3e
       -0.38429007 0.3973986 0.18573835 0.42035878
000040 9d 6d 1e bf a3 24 12 bf 47 7a 24 bf b2 11 ca bd
       -0.61886007 -0.57087153 -0.6424908 -0.09866656
000050 8d 4b 05 3f 66 2d 2d 3f 03 9c f3 be 86 7b 61 3d
       0.52068406 0.676474 -0.47579965 0.05504944
000060 0f 2c 3b 3d 26 1c 36 3d ac 24 f0 be d9 92 1e 3f
       0.045696314 0.04446044 -0.46902978 0.6194282
000070 97 4b 06 bf 2c c7 1f be a2 4f c3 be ef a3 3f 3f
       -0.5245909 -0.15603322 -0.38146693 0.7485952

transformer.encoder.layers.0.linear2.bias f4 [4]
000000 a7 60 ee 3d 6c 65 7f bd cf 76 35 bc 49 aa c7 be
       0.11639529 -0.062352583 -0.011075689 -0.38997105

transformer.encoder.layers.0.norm1.weight f4 [4]
000000 ed bd 78 3f 82 22 95 3f 6f 98 7f 3f 06 d8 83 3f
       0.97164804 1.1651156 0.9984197 1.03003

transformer.encoder.layers.0.norm1.bias f4 [4]
000000 78 f1 14 3d 07 ff e8 bb 8b 22 c5 3c 26 13 7e bd
       0.036363095 -0.0071104798 0.024064323 -0.06202998

transformer.encoder.layers.0.norm2.weight f4 [4]
000000 37 cb 78 3f 3c 09 88 3f 71 86 84 3f f2 87 7f 3f
       0.9718508 1.0627818 1.0353528 0.9981681

transformer.encoder.layers.0.norm2.bias f4 [4]
000000 16 7e 02 be df d4 99 3b 93 1b 9d bc da 07 27 3d
       -0.1274341 0.0046945657 -0.019178187 0.040778972

transformer.encoder.layers.1.self_attn.in_proj_weight f4 [12, 4]
000000 bf a2 4d be 3a 9a 87 be 1c 53 8a be 06 fa a1 be
       -0.20081614 -0.26484853 -0.27016532 -0.31636065
000010 e8 96 97 3e 2f 40 18 3f 9e 7a 81 3e 72 62 f3 be
       0.2960732 0.59472936 0.25288862 -0.47536045
000020 ad 7d a6 3e 9f ec 80 be f4 f7 d6 be ca d6 36 bc
       0.32517758 -0.25180528 -0.41986048 -0.011159608
000030 a2 63 05 3f d6 5d 24 3f a1 af d2 3e 3a 70 c3 be
       0.5210515 0.6420568 0.4114962 -0.3817156
000040 55 62 f6 be dc 4e 6f 3d a5 7b 8d 3e c4 6d d7 bd
       -0.48121896 0.058424816 0.27633396 -0.10518983
000050 9d d0 0d be c6 43 d1 be 40 a9 9d be 30 bd bf be
       -0.13849111 -0.4087202 -0.3079319 -0.37449026
000060 41 51 08 3f 52 91 78 3e ea c6 20 be 32 53 43 be
       0.53248984 0.24274185 -0.1570088 -0.19074705
000070 ee 34 26 bf 67 da 09 3e 08 4a 9c bc ad 93 2d bf
       -0.64924514 0.1346222 -0.01907827 -0.6780346
000080 d1 c7 eb 3e ce 9d 8e 3e 2b d8 e7 be c2 c4 8f be
       0.46050885 0.2785477 -0.4528211 -0.28079802
000090 74 65 29 3f f4 be 97 3e ed b2 a5 3d 8e 0f 0a 3f
       0.6617043 0.29637873 0.08090768 0.53929985
0000a0 05 86 14 3f 67 bc 97 bc b0 c2 ed 3e ae 73 17 bf
       0.58017 -0.018522454 0.46437597 -0.5916089
0000b0 f4 30 ad be 49 d5 58 3e 51 c4 a4 be 1f 63 00 bf
       -0.3382641 0.21175112 -0.32181028 -0.50151247

transformer.encoder.layers.1.self_attn.in_proj_bias f4 [12]
000000 8b a0 d0 3d 32 06 aa bd 31 ea 42 be 4f bd a3 bd
       0.10186871 -0.08301963 -0.1903465 -0.07995092
000010 aa 14 29 3a 82 e4 09 3b e2 a7 88 ba 1f 4c 21 ba
       0.00064499176 0.0021040742 -0.001042601 -0.00061530055
000020 d3 14 60 3d b3 b8 08 3c a3 d4 c2 bc 44 cf 21 3d
       0.05470736 0.008344817 -0.023783034 0.039504305

transformer.encoder.layers.1.self_attn.out_proj.weight f4 [4, 4]
000000 4e 12 5f be 94 92 f0 3d c8 a3 a7 be 88 6e 81 bf
       -0.21784326 0.117467076 -0.32742143 -1.0111856
000010 ab ec 08 3f 5a f9 06 3f f5 a2 2e 3f b5 bc fc 3e
       0.53486127 0.5272423 0.682174 0.49362722
000020 0e e6 7d 3f ac e2 d2 3c 00 1a 12 3d 00 2b 26 bd
       0.9917916 0.025742851 0.035669327 -0.04056835
000030 ee ed 54 3f cd 7e 19 3f d5 8c 1e be 89 77 ed 3e
       0.8317555 0.5995911 -0.1548341 0.4638026

transformer.encoder.layers.1.self_attn.out_proj.bias f4 [4]
000000 86 18 5c bd 77 60 6a bd 57 c4 4e 3d 5d 89 39 3d
       -0.053734325 -0.057220902 0.050480213 0.045297015

transformer.encoder.layers.1.linear1.weight f4 [8, 4]
000000 08 fd e1 3e 6d 11 0c 3f a4 13 03 bf 4c 21 51 3e
       0.4413836 0.5471409 -0.51201844 0.20422858
000010 20 6e ef 3e 3d 71 e4 be 48 ae f4 3d 6e f4 98 3e
       0.46763706 -0.44617644 0.11947304 0.29873985
000020 6d 94 78 be 34 2a b6 3e 3c d7 90 be b6 08 eb be
       -0.2427537 0.35579073 -0.2828921 -0.45905083
000030 05 8d 8d 3e f5 27 59 be 64 88 02 3e 66 a2 94 3e
       0.27646652 -0.21206649 0.12747341 0.2903015
000040 78 5f 30 3f 65 c2 a7 3e 67 fa 68 3e be 5b 66 be
       0.68895674 0.327655 0.22751771 -0.22495934
000050 b0 00 20 3e 62 6f 25 bf 68 32 27 be f9 0f 0f be
       0.15625262 -0.6462308 -0.16327822 -0.13970937
000060 d6 7a 44 be 42 0e de 3e af 87 8d 3e 71 49 55 bd
       -0.19187483 0.43370253 0.2764258 -0.052071992
000070 89 ef 07 be 81 5b 20 3f 53 6f 29 3d 74 10 25 3f
       -0.13274969 0.62639624 0.041365933 0.6447823

transformer.encoder.layers.1.linear1.bias f4 [8]
000000 80 3d aa 3e 67 28 ff be 21 01 6a be 90 33 ab be
       0.33250046 -0.49835512 -0.22851993 -0.33437777
000010 f7 fc ec bd b8 24 a3 3d 3b 5f 8e be 41 1b d8 be
       -0.11571687 0.07965988 -0.2780703 -0.42208293

transformer.encoder.layers.1.linear2.weight f4 [4, 8]
000000 ce 70 53 be 5f f0 ff be e2 de af 3e f1 8b c8 be
       -0.206485 -0.49988076 0.34349734 -0.39169267
000010 18 73 07 3f f2 2b c0 3e ea 11 ca 3e a8 1a d2 3e
       0.52909994 0.37533528 0.39466792 0.41035962
000020 b5 ed 18 bf c1 36 17 3f 37 c2 14 bf e0 b4 a0 bd
       -0.5973771 0.5906792 -0.5810885 -0.07846999
000030 c1 41 b7 be 82 33 91 3e 09 c2 0c be 29 b6 0c 3e
       -0.35792354 0.2835961 -0.13745894 0.13741364
000040 48 3f 0d bf f2 07 09 3e d5 80 cc 3e 28 31 c8 3e
       -0.55174685 0.13381937 0.3994204 0.39100003
000050 2b cc 03 3f 94 cc 96 3e ce 36 f6 be a1 e9 d9 3d
       0.5148341 0.29452956 -0.48088688 0.10640264
000060 d3 0e 36 bd f7 1c 9e 3e f7 a8 43 3f 65 b5 5c be
       -0.04444773 0.30881473 0.76429695 -0.21553572
000070 f9 9a 07 bf 5b 6c 80 be d4 7d 66 3e 52 47 3b bf
       -0.52970845 -0.2508267 0.22508937 -0.731557

transformer.encoder.layers.1.linear2.bias f4 [4]
000000 ca 80 a2 3d f4 c0 1f be c2 ba be 3b e2 44 a3 be
       0.07934721 -0.1560095 0.005820603 -0.3188849

transformer.encoder.layers.1.norm1.weight f4 [4]
000000 f2 89 84 3f 1f 10 69 3f ad 71 88 3f 2c bb 63 3f
       1.0354598 0.91040224 1.0659691 0.88957477

transformer.encoder.layers.1.norm1.bias f4 [4]
000000 7e 47 7a bc ba 83 76 bc 6d eb 8d bd 79 37 b4 3c
       -0.015275834 -0.0150460545 -0.069296695 0.021999108

transformer.encoder.layers.1.norm2.weight f4 [4]
000000 c1 4a 76 3f 38 7a 81 3f 88 3a 8e 3f 21 15 74 3f
       0.96207815 1.0115423 1.1111612 0.9534474

transformer.encoder.layers.1.norm2.bias f4 [4]
000000 f2 0e 29 3c ef d5 5d bd 98 59 af b9 1e 87 ae 3b
       0.010318505 -0.0541591 -0.00033445354 0.005326166

transformer.encoder.norm.weight f4 [4]
000000 55 90 80 3f 3f ac 77 3f dc 72 7f 3f e2 6c 8a 3f
       1.0044047 0.967472 0.99784636 1.0814478

transformer.encoder.norm.bias f4 [4]
000000 9f 69 4b bc 18 ea 85 3d 16 34 f6 3c 44 a7 22 bd
       -0.012415319 0.065387905 0.030054133 -0.0397103

transformer.decoder.layers.0.self_attn.in_proj_weight f4 [12, 4]
000000 d3 f1 48 3e 07 4a 41 be 26 cb 13 bf c0 28 5f 3e
       0.19623499 -0.18875895 -0.57731855 0.21792889
000010 e7 ca 0a 3e 1b f1 2b bf 32 af b0 be 1a 63 a1 be
       0.13553964 -0.6716477 -0.34508663 -0.3152092
000020 89 7f 4a 3f 9e cd 36 3f 78 74 0c 3e d8 18 e9 be
       0.79100853 0.71407497 0.13716304 -0.45526767
000030 79 94 bd be 02 9c d2 bd 1b 96 79 3f 8e 22 02 bf
       -0.37027338 -0.102836624 0.9749467 -0.50833976
000040 42 1d 81 be 57 61 a2 be 3f 60 02 bf 93 1c 0d bf
       -0.25217634 -0.3171489 -0.5092811 -0.55121726
000050 20 9d 90 be 75 5f 0e bf 65 2a 79 3d ca c2 82 be
       -0.28244877 -0.55614406 0.060831446 -0.25539237
000060 20 4e e4 be e6 a9 78 3e 87 c9 09 bf 24 c6 85 bf
       -0.44590855 0.24283561 -0.5382313 -1.0451093
000070 6e 8f 0b be 80 0c 7b be 5c 1b 2d 3f 87 ef 96 3f
       -0.13628933 -0.24516487 0.6761987 1.1791848
000080 b0 d4 51 be 0a 76 17 bf 87 f2 6a bd d9 59 a4 be
       -0.2049129 -0.5916449 -0.0573602 -0.32099798
000090 54 f0 24 bf 55 81 1b bf 88 a5 84 be 18 ab 94 3e
       -0.6442921 -0.6074422 -0.2590754 0.29036784
0000a0 33 aa 4a bd 6a fc 17 3e 7f dd fb 3d 60 b3 15 bf
       -0.04947872 0.14842382 0.122981064 -0.5847683
0000b0 3f a7 30 3d 55 96 0a bf 30 ab bd 3e b9 2e 98 3e
       0.04312825 -0.5413564 0.37044668 0.29723147

transformer.decoder.layers.0.self_attn.in_proj_bias f4 [12]
000000 65 c7 b8 3c b2 58 dd bc af 44 59 3e 1e ca af be
       0.022556016 -0.027019832 0.21217607 -0.3433389
000010 c6 cd 04 3c d5 6c 8f ba 52 47 f0 3b bb 92 e0 bb
       0.008105701 -0.0010942469 0.007332721 -0.006853429
000020 02 96 82 bd a0 05 f5 bd 68 64 0f bd fe 1e 7a bd
       -0.06376268 -0.119639635 -0.035007864 -0.061064713

transformer.decoder.layers.0.self_attn.out_proj.weight f4 [4, 4]
000000 c6 54 00 3f 89 8e 84 3f 5b d9 2b 3f 84 4f 77 3f
       0.50129354 1.0355998 0.67128533 0.96605706
000010 72 c1 78 3d d7 e0 f6 3e f3 9d 19 3f 12 f6 c5 be
       0.06073136 0.48218414 0.60006636 -0.386643
000020 c3 e0 15 bf 40 32 12 3f c1 1f 39 3b 6d c7 1a 3e
       -0.58546084 0.57107925 0.0028247687 0.15115137
000030 52 d3 3b 3f a1 c3 ac be b7 26 fb be 36 a7 e6 bd
       0.73369324 -0.33743003 -0.49052975 -0.11262362

transformer.decoder.layers.0.self_attn.out_proj.bias f4 [4]
000000 b3 b3 17 be 09 d7 aa 3c 09 e5 12 3d 2e dd 5d 3d
       -0.14814644 0.02085449 0.035862956 0.05416601

transformer.decoder.layers.0.multihead_attn.in_proj_weight f4 [12, 4]
000000 45 70 9f bd 59 28 05 bf 86 f2 b3 3e 81 06 35 3d
       -0.077850856 -0.5201469 0.35145968 0.044195656
000010 cf 88 e7 3e a5 a1 78 3d a0 42 05 3f 13 55 fc bd
       0.45221564 0.06070103 0.52054787 -0.12320914
000020 38 dd 18 bf 61 f4 88 3e 55 79 df be 38 bc 12 3f
       -0.59712553 0.26748946 -0.43647256 0.5731845
000030 37 21 fb be 18 8c f8 3d 1c d0 be 3e e0 b1 e3 be
       -0.49048778 0.12136096 0.3726815 -0.44471645
000040 82 75 9a be 8e 75 df be d0 0b 23 be ea 88 bc 3e
       -0.30167776 -0.43644375 -0.15922475 0.36823207
000050 14 ae d9 3d 75 58 0f 3f 85 97 db be 98 c6 9d 3e
       0.10628906 0.5599435 -0.42889038 0.30815578
000060 01 fd 8d 3e 5f 48 8c 3e c7 79 cc be 24 ae 04 3f
       0.2773209 0.27398965 -0.3993666 0.5182822
000070 6f 94 cc bb 03 33 d8 be 6b a1 c6 be 2e 42 e3 bb
       -0.0062432806 -0.4222642 -0.38795027 -0.0069353795
000080 69 ef 90 3e 90 88 63 3e 4b 7d 02 3e ab 82 6d be
       0.28307655 0.22220063 0.12743108 -0.23194377
000090 12 1d 34 3d 41 af c4 3e 90 7c 9f 3e 99 82 cd b9
       0.043973036 0.38414958 0.3114972 -0.0003919795
0000a0 c5 86 0f 3d f1 13 3f be f5 19 94 3d 3f 28 fe 3c
       0.035040636 -0.18659951 0.072315134 0.03102505
0000b0 06 e5 9d be 67 6e 04 3f 5f c4 dd 3e c8 ab fc 3e
       -0.30838794 0.5173096 0.43313882 0.4934981

transformer.decoder.layers.0.multihead_attn.in_proj_bias f4 [12]
000000 6b 50 c9 bd 20 d8 58 3d 33 08 dd 3d e0 dd a6 3d
       -0.09829792 0.052940488 0.107925795 0.08147788
000010 fe 1f 85 3b 1d 2e 2e 3b d5 4d 98 3b b1 54 ee 3a
       0.0040626517 0.0026577779 0.00464795 0.0018183199
000020 d2 86 1e 3b 6c b2 8f 3c d4 c5 1b bd 98 28 33 bd
       0.0024189246 0.017541133 -0.03803046 -0.043739885

transformer.decoder.layers.0.multihead_attn.out_proj.weight f4 [4, 4]
000000 cc ae 1e 3e a8 4f 39 bf 52 76 cb 3e c9 dc 74 3e
       0.15496367 -0.7238717 0.3973871 0.23912348
000010 6c 2e 7c be 86 04 16 bf 9f dc ba 3e a4 ca b4 be
       -0.24627084 -0.5860065 0.36496446 -0.35310853
000020 27 3e c5 3e c6 9d b3 be fb b9 21 bf 90 bd 3e bd
       0.3852398 -0.3508131 -0.6317441 -0.0465675
000030 89 0d 05 3f 5a 97 a7 3d a5 21 eb 3e fd 34 89 3c
       0.5197378 0.08183165 0.45924106 0.0167489

transformer.decoder.layers.0.multihead_attn.out_proj.bias f4 [4]
000000 f4 b8 90 bd d9 c3 9b 3c cf e5 0e 3d 89 55 84 bc
       -0.07066527 0.019014286 0.03488713 -0.016154068

transformer.decoder.layers.0.linear1.weight f4 [8, 4]
000000 ea 77 30 be 00 9a 9d 3e 61 c2 2e bf af 02 18 3f
       -0.17233244 0.30781555 -0.6826535 0.59379095
000010 52 1e 14 be 9f b1 31 be 96 f3 16 3f 52 9c 0f 3f
       -0.14464691 -0.17352913 0.5896543 0.560979
000020 a6 24 ee be 72 ff 4c 3e 1d e8 a9 be 1d ba 0e bf
       -0.46512336 0.2001932 -0.331849 -0.55752736
000030 af 56 32 3f a4 fb c9 bd 72 ee 0c 3f 43 69 20 be
       0.6966352 -0.0986245 0.5505134 -0.15665154
000040 9a 63 08 3e d1 0e e3 bd fd 8a cf 3e 3e 28 4c 3e
       0.13319245 -0.110868104 0.40535727 0.19937226
000050 2e 31 36 3f d1 71 0d 3e 25 bf d9 be bb df 33 bf
       0.7116879 0.13812949 -0.42528644 -0.7026326
000060 b5 8b 59 be cc f1 be 3e a0 b3 2b be 0c 65 35 3d
       -0.212447 0.3729385 -0.1676774 0.04428582
000070 d0 5e b4 3e 02 f5 54 bf 7e 22 17 bf 56 b8 40 3e
       0.35228586 -0.8318635 -0.59037006 0.18820319

transformer.decoder.layers.0.linear1.bias f4 [8]
000000 7a 1b e5 be b0 86 b2 3d 1a 39 80 be 8c 2d 47 be
       -0.44747525 0.08717096 -0.25043565 -0.19450969
000010 35 d1 17 be 97 6b e5 3d bf 13 b1 3e 99 25 f6 bd
       -0.148259 0.11202162 0.34585378 -0.1201889

transformer.decoder.layers.0.linear2.weight f4 [4, 8]
000000 3d 70 e2 be 19 da 42 3f a4 5c ad be bb 76 6e 3d
       -0.44226256 0.7611404 -0.33859742 0.0582187
000010 95 95 55 3e 5a cc 13 3f d2 d6 30 3e 17 b9 9d 3e
       0.20857842 0.5773369 0.17269447 0.30805275
000020 07 ab 21 3f 4c 6c 21 be 5b d4 82 3e b7 51 96 3e
       0.6315159 -0.15763968 0.2555264 0.29359218
000030 71 40 fa 3e 22 9d aa 3e 60 5f f4 3d 78 eb ae 3e
       0.4887729 0.33323008 0.11932254 0.34164023
000040 0b 4f 16 3f fd d7 ad 3c 59 d4 24 bd 36 18 10 be
       0.5871436 0.021221155 -0.040241573 -0.14071736
000050 c6 25 50 3e 25 f0 75 3e 2f b5 c1 3e 72 ba f9 be
       0.2032691 0.24017389 0.37833545 -0.4877506
000060 6a af 1e 3e 20 bf f5 3c 6e 61 f2 3e b3 5b 9e 3e
       0.15496603 0.029998362 0.47339958 0.30929336
000070 a7 ce fa be b9 6e 35 3f 3d b0 a9 bb 33 98 22 bf
       -0.48985788 0.70872074 -0.00517848 -0.6351349

transformer.decoder.layers.0.linear2.bias f4 [4]
000000 f1 1c 92 be a3 be 7d 3a b4 5e 97 3e ec d2 e0 3d
       -0.28537706 0.0009679591 0.2956444 0.1097773

transformer.decoder.layers.0.norm1.weight f4 [4]
000000 c4 e1 7e 3f 01 2e 89 3f aa a7 85 3f 23 bf 70 3f
       0.9956324 1.0717164 1.0441792 0.9404165

transformer.decoder.layers.0.norm1.bias f4 [4]
000000 8d 3e a7 bd b2 eb d0 3c 4a 38 8b 3d f3 0c 0f bd
       -0.081662275 0.025503013 0.06797846 -0.03492446

transformer.decoder.layers.0.norm2.weight f4 [4]
000000 76 d9 7a 3f 71 6f 82 3f 9d 15 87 3f ce e0 7d 3f
       0.9798807 1.0190259 1.0553471 0.9917115

transformer.decoder.layers.0.norm2.bias f4 [4]
000000 ac 89 fa bc 54 7b b2 3b c5 85 8b 3c 07 20 55 bd
       -0.030583225 0.0054468308 0.01703156 -0.052032497

transformer.decoder.layers.0.norm3.weight f4 [4]
000000 01 74 75 3f 33 ab 91 3f 69 2a 8f 3f 82 47 8a 3f
       0.9588013 1.1380371 1.1184818 1.0803072

transformer.decoder.layers.0.norm3.bias f4 [4]
000000 6c e8 e9 bd 23 16 74 3c f4 6a 89 bd b0 2b 01 bd
       -0.11421284 0.014897856 -0.06709853 -0.031535804

transformer.decoder.layers.1.self_attn.in_proj_weight f4 [12, 4]
000000 fd 75 6b 3d e3 5e 0e 3e 81 dd 3c 3f f8 7b 90 3e
       0.05748557 0.13903384 0.7377549 0.2821958
000010 05 a4 63 bd d2 72 aa 3e 86 e0 41 3e a0 bb fc 3e
       -0.055576343 0.33290726 0.18933305 0.49361897
000020 4a f6 43 bd a0 56 77 3d c7 e3 ee 3e 87 16 84 bd
       -0.0478423 0.060385346 0.46658155 -0.06449609
000030 e4 a2 4b be cb 1d 1f be d1 10 20 bf b4 2d 55 3d
       -0.19886357 -0.15538709 -0.6252566 0.05204554
000040 4f 86 71 3e f7 55 40 bf be c4 ad 3e bd fe f3 3d
       0.23586391 -0.7513117 0.33939165 0.11913822
000050 0a d1 83 3e 94 8e 1d bf bc 74 3c be f7 6e c6 be
       0.25745422 -0.6154568 -0.18403906 -0.38756534
000060 6d 0f 90 3e 2f 43 3e bd c2 cf 59 bf 83 1e 70 bf
       0.2813677 -0.04645079 -0.8508264 -0.9379656
000070 ae b7 7e be 35 12 f3 3e 33 27 e1 3d ea 08 cd 3d
       -0.24874756 0.47474828 0.10993805 0.10011466
000080 fc f9 00 bf 63 42 03 3f 6b 62 05 3f 12 d1 12 3f
       -0.50381446 0.51273173 0.521033 0.57350266
000090 fd 15 02 be ed 34 f0 be ee e6 f2 be 70 34 52 bf
       -0.127037 -0.4691538 -0.4744181 -0.82111263
0000a0 a8 85 ea bd 01 7c d8 3e c4 27 e2 be 49 78 a8 be
       -0.11451274 0.42282107 -0.44170964 -0.3290427
0000b0 2a 59 09 3f 42 43 e3 bd 09 73 33 3f b6 dc 56 3d
       0.5365168 -0.11096813 0.70097405 0.05245658

transformer.decoder.layers.1.self_attn.in_proj_bias f4 [12]
000000 e3 55 ed bd fc 38 9b 3c 93 2b 8c be 32 b8 5b bc
       -0.11588647 0.01894807 -0.27376994 -0.013410615
000010 0a 21 34 3c cf bb 13 bb 8d 0c 10 bc 76 31 d3 3a
       0.010994205 -0.0022542363 -0.008792055 0.0016112763
000020 28 85 59 bd 54 b6 65 bc a6 7f 2e 3d 8f b1 ea bc
       -0.053105503 -0.014020521 0.042602204 -0.02864912

transformer.decoder.layers.1.self_attn.out_proj.weight f4 [4, 4]
000000 a1 23 47 3f ed 4f dd be d6 bc 30 3f 80 ed 58 be
       0.7778874 -0.4322504 0.6903814 -0.21184349
000010 b2 ca 07 bf 2a ff 3f 3f cf 44 80 3e a3 01 3e 3f
       -0.53043664 0.74998724 0.25052497 0.7422125
000020 c2 54 81 3e 40 5a 05 bf 46 7f 6f 3f 04 3e 32 bf
       0.25259978 -0.52090836 0.9355358 -0.6962588
000030 d7 aa 51 bd 77 cc e3 3e d8 86 80 bf 48 83 67 3f
       -0.051188316 0.44491932 -1.0041151 0.90434694

transformer.decoder.layers.1.self_attn.out_proj.bias f4 [4]
000000 8c 23 c7 bd d0 63 f5 3c 32 f7 df 3d a8 4f 1b bd
       -0.09723577 0.02995482 0.10935821 -0.037917763

transformer.decoder.layers.1.multihead_attn.in_proj_weight f4 [12, 4]
000000 65 42 ec be 75 54 7a 3e 7f 59 c7 be f9 d5 40 bf
       -0.46144405 0.2444628 -0.38935468 -0.75326496
000010 a7 20 0a bf e7 16 58 bd 04 12 98 3e 67 0f 5e 3d
       -0.53956074 -0.052756216 0.29701245 0.054213908
000020 c8 d5 38 3f 5c 5b de 3e bd 1e de 3e 63 c9 a5 3d
       0.72201204 0.43429077 0.43382826 0.08095052
000030 b6 85 0e 3f 01 54 ce be 9e db fd 3e 29 b2 fb bd
       0.55672777 -0.40298465 0.49581617 -0.12289841
000040 05 b9 de 3d 0b 60 8c 3e 86 38 7e 3d 6c 0c 36 bd
       0.108751334 0.27417025 0.062065624 -0.04444544
000050 53 f6 1d 3f 38 8f 3c bf 9d b2 33 bf 2a 8b af 3e
       0.61703986 -0.73656034 -0.7019442 0.3428586
000060 84 82 4d 3e f2 e6 97 3e a7 20 39 3f ea bc 8a be
       0.20069319 0.29668385 0.7231545 -0.27097255
000070 89 67 fc 3d 43 8b 1c bc bf ae 1f 3f cd e4 09 be
       0.12324435 -0.009554687 0.62376016 -0.13466187
000080 01 d4 c7 bd 7e db dc 3e 05 75 09 3d 4b 9f a2 3e
       -0.097572334 0.4313621 0.033558864 0.31762156
000090 de 91 2d 3f 1e 05 43 bf a9 63 04 bf 63 8f 9c 3d
       0.678007 -0.76179683 -0.5171457 0.07644536
0000a0 6b e9 f2 be a3 26 d2 be ed ed ca be 30 bd 2f bd
       -0.4744371 -0.41045102 -0.39634648 -0.042905033
0000b0 b9 cc d7 3e 82 9a eb 3e ba 57 85 3e b3 06 42 3f
       0.42148378 0.46016318 0.26043493 0.7579147

transformer.decoder.layers.1.multihead_attn.in_proj_bias f4 [12]
000000 08 82 f0 bd 8e c1 b1 be 8f d9 18 3e cd 3b 0b 3e
       -0.117435515 -0.34717983 0.14926742 0.13597031
000010 78 fd f0 39 01 12 a3 3c 70 62 73 ba d7 02 41 3b
       0.00045965216 0.019906046 -0.00092843827 0.0029451156
000020 d7 3e bc 3c 1b b8 4d bd f0 41 a4 bd af dd d1 bc
       0.022979183 -0.050224405 -0.08020389 -0.025618402

transformer.decoder.layers.1.multihead_attn.out_proj.weight f4 [4, 4]
000000 f5 ca 0f bf 4a 2f 47 bf 77 fd 29 3f 6a 96 b4 3e
       -0.5616906 -0.7780653 0.6640238 0.35271007
000010 5b df 92 be 17 53 26 bf 2d f0 6b 3e b2 40 5f 3f
       -0.28686032 -0.64970535 0.23040839 0.8720809
000020 3e 29 b1 3e 54 e8 2b bf 9a 98 5d bd 8b b5 72 bf
       0.34601778 -0.6715138 -0.05410061 -0.9480826
000030 e5 8a a1 3e cd 0d dc 3e 1f 7d 40 3d d2 7a 12 bf
       0.3155128 0.4297928 0.046994325 -0.5721866

transformer.decoder.layers.1.multihead_attn.out_proj.bias f4 [4]
000000 20 fb e2 bd 46 a1 68 3d 93 68 b3 3d 66 8b 71 bd
       -0.110830545 0.056794427 0.0876018 -0.05897083

transformer.decoder.layers.1.linear1.weight f4 [8, 4]
000000 22 d5 db be 5e de d3 3e c4 6b a3 bd 99 3b 0b 3f
       -0.42936045 0.4138059 -0.07979539 0.54387814
000010 77 df 04 be 77 93 20 bf 08 f7 1e bf b7 55 82 bd
       -0.1297587 -0.62725013 -0.6209569 -0.06364005
000020 01 04 39 bf 39 f4 7c 3e 03 58 df be 70 3e 32 3f
       -0.72271734 0.24702539 -0.43621835 0.6962652
000030 e4 ec f4 3d 6c ee d9 be 2a 72 39 3e fb 0d 3d bf
       0.11959246 -0.42564714 0.18109956 -0.7384946
000040 32 79 25 bd b0 99 94 be 84 b9 a8 3e 89 75 27 3f
       -0.040398784 -0.29023504 0.32954037 0.6541372
000050 ac 1d a2 be 07 7d 30 bf ca 39 f6 3e 8d f7 1c bf
       -0.31663263 -0.68940777 0.48090965 -0.6131523
000060 4f b7 09 3d 67 e6 f9 3e 7a 39 8d be e2 ab 04 bf
       0.033622082 0.48808596 -0.27582914 -0.5182477
000070 a4 cd bc bd 11 d1 be bd 26 7b ce be 22 6f c6 be
       -0.0921891 -0.0931722 -0.4032833 -0.38756663

transformer.decoder.layers.1.linear1.bias f4 [8]
000000 11 24 a3 be b2 22 f5 ba 91 05 d3 be 0f fa 30 be
       -0.31863454 -0.0018702357 -0.41215184 -0.1728289
000010 89 25 07 be ab e8 ec 3c 81 05 05 3f db b7 37 be
       -0.13197912 0.028919538 0.51961523 -0.17941229

transformer.decoder.layers.1.linear2.weight f4 [4, 8]
000000 b7 43 48 3f b2 3d f3 be 90 22 91 3e aa aa 48 3f
       0.78228325 -0.47508007 0.28346682 0.7838541
000010 4b 90 42 3f 02 ac 84 bf 38 f3 15 bf 06 f3 d8 3e
       0.76001424 -1.0364993 -0.5857425 0.42372912
000020 fa 78 33 3f e6 ab f8 3e a3 12 92 3e 62 83 fc 3e
       0.7010647 0.48568648 0.28529844 0.49318987
000030 d2 a4 18 3f fb 99 aa 3d bd 3d 09 bf 87 67 04 bf
       0.59626496 0.08330151 -0.5360983 -0.5172047
000040 27 25 e5 bd 58 ea 45 3f 36 34 40 be 66 8a d8 be
       -0.11188727 0.77310705 -0.18769917 -0.4229309
000050 3e d4 cd 3e b7 4c 32 3f 19 d6 db 3e 5b ab 17 bf
       0.4020099 0.6964831 0.4293678 -0.5924584
000060 74 fa cb 3e ec 9c 93 be ac 07 eb be ec a7 93 3e
       0.39839518 -0.2883066 -0.4590429 0.28839052
000070 a7 07 23 bf 6d ca b3 bd c2 43 fa 3e 6a f7 d7 3e
       -0.6368355 -0.08778844 0.4887982 0.4218095

transformer.decoder.layers.1.linear2.bias f4 [4]
000000 69 76 aa be 42 3b 0a be 7e 75 a9 3e e3 35 69 3e
       -0.33293465 -0.13499168 0.33097452 0.22774462

transformer.decoder.layers.1.norm1.weight f4 [4]
000000 50 0a 88 3f c7 79 89 3f 6d 13 69 3f 8e ce 73 3f
       1.0628147 1.0740288 0.91045266 0.9523705

transformer.decoder.layers.1.norm1.bias f4 [4]
000000 a2 91 4d bd ed 18 92 3d dc 08 d3 3d 5c d7 81 bd
       -0.050187714 0.071336605 0.10304424 -0.06339905

transformer.decoder.layers.1.norm2.weight f4 [4]
000000 f3 ff 79 3f 1f 05 83 3f 1c e1 57 3f fd c0 96 3f
       0.9765617 1.0235938 0.84327865 1.1777645

transformer.decoder.layers.1.norm2.bias f4 [4]
000000 25 a1 a4 bd e3 84 8f bb 95 0f 2f 3e 10 70 12 bc
       -0.080385484 -0.004379855 0.17095788 -0.008937851

transformer.decoder.layers.1.norm3.weight f4 [4]
000000 4d bc 84 3f 5a cf 53 3f 98 8a 8a 3f cf 0d 95 3f
       1.0369965 0.8273827 1.0823545 1.1644839

transformer.decoder.layers.1.norm3.bias f4 [4]
000000 ee 0c 6f bd ae 14 fc bd 08 05 87 3e 8a e7 05 be
       -0.05836194 -0.12308632 0.26371026 -0.13076606

transformer.decoder.norm.weight f4 [4]
000000 78 7e e8 3f 9b 12 a8 3f 40 19 cf 3f fc fe a8 3f
       1.8163595 1.3130678 1.6179581 1.3202815

transformer.decoder.norm.bias f4 [4]
000000 e9 a5 0e 3d 8f 2d 93 ba 3c 89 01 3d bf 72 6d bc
       0.034826193 -0.0011228787 0.031625018 -0.01449269

predictor.weight f4 [2, 4]
000000 7e 54 6f 3f e4 b5 97 bd 44 20 85 bc 89 ad 67 bd
       0.934883 -0.0740774 -0.016250737 -0.05656198
000010 d0 e6 39 3f 21 ae 34 bf ec 47 38 3f e3 62 2a bf
       0.72617817 -0.705782 0.71984744 -0.6655714

predictor.bias f4 [2]
000000 47 df f2 3e 87 98 b2 be
       0.47435972 -0.34881994
